…
\n","    \n","])\n","\n","rms_optimizer = tf.train.AdamOptimizer()\n","\n","#The loss is the mean square error and the metric used is the mean absolute error\n","model.compile(loss='mse',\n","             optimizer = rms_optimizer,\n","             metrics = ['mae'])\n","\n","model.summary()"],"execution_count":381,"outputs":[{"output_type":"stream","text":["_________________________________________________________________\n","Layer (type)                 Output Shape              Param #   \n","=================================================================\n","dense_30 (Dense)             (None, 64)                4928      \n","_________________________________________________________________\n","dense_31 (Dense)             (None, 64)                4160      \n","_________________________________________________________________\n","batch_normalization_v1_20 (B (None, 64)                256       \n","_________________________________________________________________\n","dropout_20 (Dropout)         (None, 64)                0         \n","_________________________________________________________________\n","batch_normalization_v1_21 (B (None, 64)                256       \n","_________________________________________________________________\n","dropout_21 (Dropout)         (None, 64)                0         \n","_________________________________________________________________\n","dense_32 (Dense)             (None, 1)                 65        \n","=================================================================\n","Total params: 9,665\n","Trainable params: 9,409\n","Non-trainable params: 256\n","_________________________________________________________________\n"],"name":"stdout"}]},{"metadata":{"id":"INYzNEih4MNf","colab_type":"code","outputId":"60991c44-5bea-418a-badd-f525f2fffba3","executionInfo":{"status":"ok","timestamp":
…
